blazeface_detector.onnx (onnx, 418458 bytes, 70 tensors)

const_fold_opt__487 f4 [96, 1, 3, 3]
00000000: 0080 c63f 0040 ea3f 00a0 9cbe 0080 92be
00000010: 0040 db3f 0020 50c0 0020 af3e 0060 46c0
00000020: 0060 9bbf 0000 a5bf 00c0 02be 00e0 763e
00000030: 00c0 29bf 00c0 223f 0060 b23f 00a0 913d
00000040: 00a0 ca3f 0080 1b40 0040 48be 0000 a3bf
00000050: 0000 b4bf 0020 833d 0060 a5bc 0040 84be
00000060: 00e0 143e 0000 4dbe 0020 c7be 0080 9b3f
00000070: 0040 ac3e 0000 22bf 0060 893f 00e0 a83f
00000080: 0060 f5be 0040 753f 00e0 d03f 00c0 20be
00000090: 00a0 d4bf 0000 9dbf 0000 b7bf 0060 92bf
000000a0: 0060 78c0 00a0 9cbf 0080 71be 0040 9ebf
000000b0: 00c0 23bf 00a0 9bbf 00a0 9d3d 00a0 393f
000000c0: 00c0 3ec0 00e0 29bf 0000 8f3f 00e0 02c0
000000d0: 0080 debf 00c0 9f3d 0020 67c0 0060 eebf
000000e0: 00a0 0c3e 00e0 cbbf 00c0 cf3f 0060 453f
000000f0: 00c0 b33a 0040 1b3f 0000 803f 0020 79bf
00000100: 00c0 1e3f 0080 2640 0040 d4bf 00c0 32be
00000110: 0000 923f 00e0 9ebe 00e0 1abf 0000 d93e
00000120: 00a0 7c3f 00a0 a93f 0060 dc3e 0000 5b3e
00000130: 00e0 b83d 0080 0ebf 00c0 09bf 0080 8abf
00000140: 00c0 6fbe 0040 ee3f 0000 81bf 0080 c3bf
00000150: 0000 05bc 00a0 a83f 0060 20bf 0040 a6bf
00000160: 0000 cf3f 0060 9d3f 0000 0840 0000 4740
00000170: 00c0 cc3d 0000 0340 0040 3140 00e0 463f
00000180: 0020 d4be 00c0 97be 00c0 65be 0040 7dbf
00000190: 00a0 73bf 0060 3abf 0000 c5be 00e0 15c0
000001a0: 00e0 843f 0080 c43b 0040 6a3f 00a0 7f3f
000001b0: 00c0 2940 00e0 85bf 0040 d13f 0000 70bd
000001c0: 0080 2dc0 00a0 febf 00c0 eebf 00e0 c3bf
000001d0: 0060 edbf 0080 67be 0040 d5be 00e0 88bf
000001e0: 0060 3fbc 00a0 1a3f 00a0 39bf 00e0 3bbf
000001f0: 0040 95be 0080 0cbf 00a0 6dbf 0040 dc3e
00000200: 0040 16be 00c0 46c0 00e0 ccbf 0060 cebf
00000210: 00a0 58c0 0060 eebf 00c0 16bf 0060 55bf
00000220: 0060 68bf 0060 24bf 0020 98bf 00a0 cbbe
00000230: 0060 8c3f 00c0 a5bf 0040 a0bf 0060 1fbf
00000240: 0020 3140 00a0 6c3f 00c0 c6bd 00e0 f13f
00000250: 00e0 c73f 00e0 9c3f 00a0 4f3f 0000 3cbf
00000260: 0040 423d 0000 613e 00a0 dfbe 0060 d4be
00000270: 0020 11bf 0000 77bf 0020 9cbf 0000 dcbf
00000280: 00c0 a3bf 00e0 44bf 0020 0fbf 0040 79bf
00000290: 0020 9bbf 00c0 98bf 00c0 e03f 00c0 56be
000002a0: 0020 7cbf 00c0 e3be 00e0 0d3e 0080 8cbf
000002b0: 00a0 4ebf 0080 efbe 0060 f3bf 0080 393f
000002c0: 00e0 d0bd 0000 c6bf 00c0 b4be 0060 b9bf
000002d0: 0020 143e 0000 b8be 0040 abbe 0060 12bf
000002e0: 0080 9abf 00c0 6fbf 0020 06bf 00c0 90bf
000002f0: 0040 1cbf 00e0 993f 00c0 d03d 00e0 153f
00000300: 0080 853f 0040 06c0 00c0 4b3d 0080 92bd
00000310: 0080 9ebf 00c0 64bf 00e0 e93f 0060 6c40
00000320: 0020 3140 0080 5c40 00e0 3d40 0060 4a3f
00000330: 00c0 0c40 0040 f43f 0000 f2be 0040 8f3f
00000340: 00c0 c03f 0000 8b3f 00a0 1a40 0040 a13f
00000350: 00c0 25bf 0080 86be 0000 29bf 0020 98bf
00000360: 0080 693f 0040 6f40 0040 7e3e 00c0 29be
00000370: 00c0 1f40 0060 dbbf 00c0 86bf 00c0 063e
00000380: 0080 88bf 0000 c33f 0040 e33f 00e0 9b3f
00000390: 00e0 7a3f 00e0 f73e 0020 a5bd 00c0 14bf
000003a0: 00a0 873e 0040 12bf 0000 aabf 0080 48bf
000003b0: 00a0 a0bf 0080 aebf 00a0 0ec0 0080 e9be
000003c0: 00e0 7cbf 0080 773f 00e0 073f 00a0 04bf
000003d0: 0060 a9be 00c0 1ebf 0080 343f 0040 44c0
000003e0: 0020 2cbf 0000 b13f 0040 223e 0020 e83c
000003f0: 0020 d63c 0020 2ebe 00e0 b0bf 0080 0f3f
1.5507812 1.8300781 -0.3059082 -0.2861328 1.7128906 -3.2519531 0.34204102 -3.0996094
-1.2138672 -1.2890625 -0.12768555 0.24108887 -0.66308594 0.6357422 1.3935547 0.07110596
1.5830078 2.4296875 -0.19555664 -1.2734375 -1.40625 0.06402588 -0.020187378 -0.25830078
0.14538574 -0.20019531 -0.38891602 1.2148438 0.33642578 -0.6328125 1.0732422 1.3193359
-0.47924805 0.9580078 1.6318359 -0.15698242 -1.6611328 -1.2265625 -1.4296875 -1.1435547
-3.8808594 -1.2236328 -0.23583984 -1.2363281 -0.63964844 -1.2158203 0.07696533 0.72509766
-2.9804688 -0.6635742 1.1171875 -2.0449219 -1.7382812 0.07800293 -3.6113281 -1.8623047
0.1373291 -1.5927734 1.6230469 0.7709961 0.0013713837 0.6064453 1.0 -0.97314453
0.6201172 2.6015625 -1.6582031 -0.17456055 1.140625 -0.31030273 -0.60498047 0.42382812
0.9868164 1.3251953 0.43041992 0.21386719 0.090270996 -0.5566406 -0.53808594 -1.0820312
-0.23413086 1.8613281 -1.0078125 -1.5273438 -0.008117676 1.3173828 -0.62646484 -1.2988281
1.6171875 1.2294922 2.125 3.109375 0.099975586 2.046875 2.7695312 0.77685547
-0.41430664 -0.29638672 -0.22436523 -0.9892578 -0.95166016 -0.72802734 -0.38476562 -2.3417969
1.0380859 0.005996704 0.91503906 0.99853516 2.6523438 -1.0458984 1.6347656 -0.05859375
-2.7109375 -1.9892578 -1.8652344 -1.5302734 -1.8544922 -0.22607422 -0.4165039 -1.0693359
-0.011680603 0.6040039 -0.72509766 -0.7338867 -0.2915039 -0.5488281 -0.92822266 0.43017578
-0.14672852 -3.1054688 -1.6005859 -1.6123047 -3.3847656 -1.8623047 -0.5888672 -0.8334961
-0.90771484 -0.64208984 -1.1884766 -0.39770508 1.0966797 -1.2949219 -1.2519531 -0.6225586
2.7675781 0.9243164 -0.0970459 1.8896484 1.5615234 1.2255859 0.81103516 -0.734375
0.047424316 0.21972656 -0.43676758 -0.41479492 -0.56689453 -0.96484375 -1.2197266 -1.71875
-1.2792969 -0.76904297 -0.55908203 -0.9736328 -1.2119141 -1.1933594 1.7558594 -0.2097168
-0.9848633 -0.44482422 0.1385498 -1.0976562 -0.8071289 -0.46777344 -1.9013672 0.7246094
-0.101989746 -1.546875 -0.35302734 -1.4482422 0.14465332 -0.359375 -0.33447266 -0.57177734
-1.2070312 -0.93652344 -0.5239258 -1.1308594 -0.61035156 1.2021484 0.10192871 0.5854492
1.0429688 -2.0976562 0.049743652 -0.0715332 -1.2382812 -0.8935547 1.8271484 3.6933594
2.7675781 3.4453125 2.9667969 0.79052734 2.1992188 1.9082031 -0.47265625 1.1191406
1.5058594 1.0859375 2.4160156 1.2597656 -0.64746094 -0.2626953 -0.66015625 -1.1884766
0.9121094 3.7382812 0.24829102 -0.16577148 2.4960938 -1.7138672 -1.0527344 0.1315918
-1.0664062 1.5234375 1.7753906 1.2177734 0.97998047 0.48413086 -0.08062744 -0.5810547
0.26489258 -0.57128906 -1.328125 -0.7832031 -1.2548828 -1.3632812 -2.2285156 -0.4560547
-0.98779297 0.9667969 0.5307617 -0.5180664 -0.33081055 -0.6201172 0.7050781 -3.0664062
-0.6723633 1.3828125 0.15844727 0.028335571 0.026138306 -0.17004395 -1.3818359 0.5605469

const_fold_opt__486 f4 [96, 1, 3, 3]
00000000: 00e0 6dbe 00e0 7a40 00c0 8a40 0000 29c0
00000010: 0000 953f 00c0 2540 0000 94c0 0020 dabf
00000020: 0020 5fbd 0060 9ebe 0000 c4be 0080 dd3e
00000030: 00a0 60bf 0040 e0be 00e0 4ebf 00e0 a4bf
00000040: 00c0 183d 00a0 5b3e 0000 1040 00c0 1d40
00000050: 00a0 8f3f 00c0 663f 00e0 1e40 0000 683f
00000060: 00a0 40bf 0080 353f 0020 2c3f 00a0 e7bf
00000070: 0000 dd3d 0080 2bbf 00e0 3dbf 00c0 0f40
00000080: 0000 9cbe 0000 46bf 0000 23be 00a0 25be
00000090: 0040 70c0 0060 f23e 0080 973e 00e0 61bf
000000a0: 00c0 2940 00c0 713e 00e0 493f 0040 603f
000000b0: 0080 0d3e 0040 973e 00a0 a43e 0040 923e
000000c0: 0000 a63e 0020 9cbf 0020 b23e 00c0 8f3e
000000d0: 0060 c03e 00c0 8f3e 00e0 81bf 0000 bebf
000000e0: 00e0 04bf 0020 d0be 00e0 b73f 0060 96bf
000000f0: 0080 80bf 00e0 003f 0060 6ebe 0040 a93e
00000100: 0020 7c3f 0040 7a3f 0020 ab3d 0000 d33e
00000110: 0060 d53f 0080 9d3e 00e0 0740 0080 2f3f
00000120: 0000 b13d 0080 72bf 0020 76bd 00a0 61be
00000130: 0080 1cbf 0040 0f3c 0020 13bf 0020 b43e
00000140: 00c0 d33e 00a0 3b3e 0040 333f 0060 35ba
00000150: 0000 e43e 00e0 af3f 0060 bc3e 0060 31bb
00000160: 0040 533f 0060 38be 0000 32c0 00c0 3cbf
00000170: 0080 3ebf 0000 79bf 0080 5f3f 00a0 25bf
00000180: 0000 91be 0040 c7be 00c0 0f3f 00c0 833e
00000190: 0060 ee3d 00c0 833d 00a0 ee3e 0020 98be
000001a0: 0000 7c3e 0080 94bc 0080 173f 00e0 553e
000001b0: 00a0 a23f 0020 b23f 00a0 0a3f 0060 dc3f
000001c0: 0000 0bc0 00c0 673f 00c0 903f 0000 d43f
000001d0: 0020 d63f 00e0 843d 0060 2f3e 00e0 163e
000001e0: 0080 37bf 0080 d03d 00a0 8bbd 0060 74bf
000001f0: 00e0 0d3e 0040 89bf 0000 acbe 0040 2fbf
00000200: 0000 e23d 0060 3ebf 0020 a53f 00e0 7abf
00000210: 00e0 b9be 0020 82bf 0040 203e 0040 153f
00000220: 00c0 0b40 0020 3ebe 00c0 fe3e 0000 b33f
00000230: 0040 fabe 0060 4d3e 00e0 8dbf 0020 5bbd
00000240: 0060 88bf 00a0 2bc0 00a0 f4bf 00c0 51c0
00000250: 00e0 8440 0060 27c0 0020 edbf 0020 5ec0
00000260: 0000 f1bf 00c0 dc3e 0080 16bf 0020 05bf
00000270: 00c0 083e 0000 32bf 0080 b2be 0080 3bbe
00000280: 0040 0abe 0000 883d 00e0 bebf 00c0 bfbf
00000290: 0000 cbbf 0020 94bf 0080 6bbf 00a0 87bf
000002a0: 00c0 bfbe 00c0 21bf 0060 7fbf 0080 3d3e
000002b0: 00a0 853f 00a0 473f 0040 5e3f 00c0 06c0
000002c0: 0080 7d3f 0040 1b3f 0060 d13e 0040 a53e
000002d0: 00e0 3d3e 0020 3cc0 00a0 14bf 0060 eebf
000002e0: 00c0 41c0 0080 ab3f 0020 1abf 00a0 e63e
000002f0: 00a0 60bf 0000 06bf 00c0 5cbf 00a0 b13f
00000300: 00e0 a0be 0080 4bc0 00c0 603f 0000 943f
00000310: 0060 663f 0040 df3e 00a0 c83c 00a0 c03f
00000320: 0020 653f 00a0 cd3f 0020 9fbf 00c0 57bf
00000330: 00e0 983f 0000 b33d 0000 97bf 0060 283d
00000340: 00c0 9c3e 0020 a53f 0000 71be 0080 5fbf
00000350: 0080 013f 0080 913c 0020 1b3d 0040 763e
00000360: 0000 31c0 00a0 15c0 0040 92bf 0080 ccbf
00000370: 0060 5e40 0040 3fbf 00c0 7dbf 00a0 32bf
00000380: 00e0 903e 0080 ec3f 0080 f73e 0040 79be
00000390: 0040 2940 0060 3ac0 00c0 febe 00e0 3c40
000003a0: 0060 9e3f 00a0 d33e 0040 59bf 0080 f1bf
000003b0: 0020 cdbb 0020 57bf 0080 0540 0060 673f
000003c0: 0060 b1be 00a0 293f 0080 93be 00a0 96be
000003d0: 0080 eebe 0000 3dbe 0020 98be 0080 613f
000003e0: 0080 31bf 0080 cebe 0020 f8be 0000 9fbe
000003f0: 0040 ac3f 0020 41bf 0000 b1bf 0020 ea3f
-0.2322998 3.9199219 4.3359375 -2.640625 1.1640625 2.5898438 -4.625 -1.7041016
-0.054473877 -0.30932617 -0.3828125 0.4326172 -0.8774414 -0.43798828 -0.80810547 -1.2880859
0.03729248 0.21447754 2.25 2.4648438 1.1220703 0.9013672 2.4824219 0.90625
-0.7524414 0.7089844 0.6723633 -1.8095703 0.107910156 -0.6699219 -0.7416992 2.2460938
-0.3046875 -0.7734375 -0.15917969 -0.16174316 -3.7539062 0.47338867 0.29589844 -0.8823242
2.6523438 0.23608398 0.7885742 0.87597656 0.1381836 0.29541016 0.3215332 0.28564453
0.32421875 -1.2197266 0.3479004 0.28076172 0.37573242 0.28076172 -1.0146484 -1.484375
-0.51904297 -0.40649414 1.4365234 -1.1748047 -1.0039062 0.50341797 -0.23278809 0.3305664
0.9848633 0.97753906 0.08355713 0.41210938 1.6669922 0.3076172 2.1230469 0.6855469
0.08642578 -0.9472656 -0.06008911 -0.22033691 -0.6113281 0.008743286 -0.57470703 0.35180664
0.41357422 0.18322754 0.7001953 -0.0006918907 0.4453125 1.3740234 0.36791992 -0.0027065277
0.8251953 -0.18005371 -2.78125 -0.7373047 -0.7441406 -0.97265625 0.8730469 -0.64697266
-0.28320312 -0.38916016 0.56152344 0.25732422 0.11639404 0.064331055 0.46606445 -0.29711914
0.24609375 -0.018127441 0.5917969 0.2088623 1.2705078 1.3916016 0.5415039 1.7216797
-2.171875 0.90527344 1.1308594 1.65625 1.6728516 0.06488037 0.17126465 0.14733887
-0.7167969 0.10180664 -0.06817627 -0.95458984 0.1385498 -1.0722656 -0.3359375 -0.6845703
0.11035156 -0.74365234 1.2900391 -0.97998047 -0.3630371 -1.0166016 0.15649414 0.5830078
2.1835938 -0.18566895 0.4975586 1.3984375 -0.48876953 0.20056152 -1.1083984 -0.053497314
-1.0654297 -2.6816406 -1.9111328 -3.2773438 4.1523438 -2.6152344 -1.8525391 -3.4707031
-1.8828125 0.43115234 -0.5878906 -0.52001953 0.13354492 -0.6953125 -0.3486328 -0.18310547
-0.13500977 0.06640625 -1.4912109 -1.4980469 -1.5859375 -1.1572266 -0.9199219 -1.0595703
-0.37451172 -0.63183594 -0.9975586 0.1850586 1.0439453 0.77978516 0.86816406 -2.1054688
0.9902344 0.6064453 0.40893555 0.3227539 0.1854248 -2.9394531 -0.5805664 -1.8623047
-3.0273438 1.3398438 -0.6020508 0.45043945 -0.8774414 -0.5234375 -0.8623047 1.3876953
-0.31420898 -3.1796875 0.8779297 1.15625 0.89990234 0.43603516 0.024490356 1.5048828
0.89501953 1.6064453 -1.2431641 -0.84277344 1.1943359 0.087402344 -1.1796875 0.041107178
0.30615234 1.2900391 -0.23535156 -0.8730469 0.5058594 0.01776123 0.037872314 0.24047852
-2.765625 -2.3378906 -1.1425781 -1.5976562 3.4746094 -0.7470703 -0.99121094 -0.6977539
0.28295898 1.8476562 0.48339844 -0.2434082 2.6445312 -2.9121094 -0.4975586 2.9511719
1.2373047 0.41333008 -0.8486328 -1.8867188 -0.006259918 -0.84033203 2.0859375 0.9038086
-0.34643555 0.66259766 -0.28808594 -0.29418945 -0.4658203 -0.18457031 -0.29711914 0.8808594
-0.6933594 -0.4033203 -0.48461914 -0.31054688 1.3457031 -0.75439453 -1.3828125 1.8291016

const_fold_opt__483 f4 [80, 1, 3, 3]
00000000: 0000 18bf 00c0 aebf 0040 27be 0000 5bbf
00000010: 00e0 7ebf 00c0 a9bf 00c0 09bf 0060 a3bf
00000020: 0040 26bf 0040 d03f 00a0 e43f 00e0 c13f
00000030: 00c0 ea3f 00a0 2940 0000 ff3f 0060 b53f
00000040: 00e0 f63f 00c0 be3f 00e0 52bf 0020 1dbf
00000050: 00c0 8fbe 0020 49bc 00e0 6bbf 00e0 c1be
00000060: 0000 8d3d 0020 943e 0040 823d 00a0 e0be
00000070: 0000 adbd 0060 9bbe 0060 40bf 00a0 503e
00000080: 0080 d3be 0040 58be 0080 edbe 00c0 85be
00000090: 0020 80bf 00e0 febf 0060 da3e 0080 eabf
000000a0: 00c0 99bf 0000 923e 0020 843f 0000 a63f
000000b0: 00c0 f43f 0040 9bbf 0060 94bf 0000 b0bf
000000c0: 0020 9dbf 00a0 99be 00e0 b7bf 00a0 84bf
000000d0: 00c0 90bf 00a0 58bf 00c0 263d 00e0 003f
000000e0: 0000 74bd 00c0 3bbe 00a0 fd3f 0040 8c3e
000000f0: 00c0 b5be 0060 dbbd 00a0 2b3e 00c0 16bf
00000100: 0040 6fbf 00a0 97bf 00e0 16bf 0000 643f
00000110: 0020 b2bf 00e0 4abf 0060 abbf 0060 ffbf
00000120: 0080 b8bd 0040 1fbe 0060 f2bd 0000 debe
00000130: 0000 d7be 00c0 dfbe 00a0 39bf 00e0 6fbf
00000140: 00a0 37bf 0000 28be 00a0 a1be 0000 f0be
00000150: 00c0 9cbd 0080 5940 0040 acbe 00a0 94bd
00000160: 00c0 c2bd 0040 74be 0060 123f 0020 103f
00000170: 00a0 51bf 0000 bb3f 0000 463f 00c0 56bf
00000180: 0060 963f 00a0 9fbe 0060 c4be 0060 93be
00000190: 00a0 82be 00e0 3cbe 0000 9ebe 00a0 3a40
000001a0: 0040 7fbe 0000 1abf 00c0 9abe 0040 6abe
000001b0: 00c0 c43f 00a0 073f 0060 843f 0040 943e
000001c0: 0060 e0bf 0000 813d 0000 793f 0020 8abc
000001d0: 0040 2a3f 0020 abba 0000 7c3e 00e0 d2bd
000001e0: 0060 b4bc 0000 b13f 0080 2dbf 0080 b7bc
000001f0: 00a0 3fbf 00c0 f1be 0000 08c0 00c0 3ac0
00000200: 00e0 a7bf 0080 77c0 00e0 3ebf 0080 b8bf
00000210: 0000 16c0 00e0 fabf 0060 41bf 0040 b0be
00000220: 0000 523f 0000 2a3e 0060 43bf 0020 1cc0
00000230: 0040 093f 0020 9bbe 0040 12bf 0020 ae3d
00000240: 00a0 ce3e 0020 d73f 0060 3a3f 0000 8f3f
00000250: 0020 dbbc 00e0 bd3f 0040 303f 00a0 7c3f
00000260: 0080 203f 00a0 66be 00a0 803e 0020 843e
00000270: 0080 4dbd 00c0 9c3f 0020 143f 00c0 db3d
00000280: 0000 293e 00c0 143e 00e0 7f3f 00a0 c93f
00000290: 00c0 5a3f 0040 bd3f 00e0 933f 0000 393f
000002a0: 0000 603f 0000 233f 00c0 a03e 0020 b0be
000002b0: 0020 40be 0060 273e 0080 01bf 00c0 2bbf
000002c0: 00c0 ce3e 00e0 ddbe 0060 07bf 0040 923e
000002d0: 00e0 a93e 0060 2c3e 00c0 ef3d 00e0 1bbd
000002e0: 00a0 bdbf 0000 643e 0020 7cbe 0000 a43d
000002f0: 0060 b83e 0060 b13d 00c0 933d 00c0 33be
00000300: 00a0 993d 00a0 4140 00a0 27be 0000 893c
00000310: 0060 de3c 00c0 fc3d 00e0 30bf 0020 8a3f
00000320: 00a0 813f 0000 88bd 0060 0240 00a0 f43f
00000330: 0020 a7be 0080 ea3e 0020 673f 0020 37be
00000340: 00a0 2bbe 0060 10be 00c0 55be 0000 1640
00000350: 0080 e0bd 0060 93be 0000 1abe 0060 2cbe
00000360: 00a0 08bf 00e0 f5bf 00c0 48c0 00c0 8fbe
00000370: 0020 a0bf 00e0 04c0 0080 15bf 0080 87bf
00000380: 0040 b6bf 00e0 5cbf 00c0 45bf 00c0 13bf
00000390: 00a0 0dbf 0020 14bf 0060 0abf 00a0 f5be
000003a0: 00c0 52bf 0020 1abf 0020 00be 00a0 9ebf
000003b0: 0020 29bf 0060 6fbf 0080 debf 0000 0ebf
000003c0: 00c0 50bf 0080 afbf 00c0 22bf 0060 083c
000003d0: 00c0 67bf 0040 abbf 0040 1d3c 0060 46bf
000003e0: 0080 ccbf 0080 253b 0080 a1be 00e0 c6be
000003f0: 00c0 883f 0020 a73f 0040 953f 00e0 913f
-0.59375 -1.3652344 -0.16333008 -0.85546875 -0.99560547 -1.3261719 -0.53808594 -1.2763672
-0.64941406 1.6269531 1.7861328 1.5146484 1.8339844 2.6503906 1.9921875 1.4169922
1.9287109 1.4902344 -0.82373047 -0.61376953 -0.28076172 -0.012275696 -0.9213867 -0.3786621
0.068847656 0.28930664 0.06359863 -0.4387207 -0.084472656 -0.3034668 -0.75146484 0.20373535
-0.41308594 -0.21118164 -0.4638672 -0.26123047 -1.0009766 -1.9912109 0.42651367 -1.8320312
-1.2011719 0.28515625 1.0322266 1.296875 1.9121094 -1.2128906 -1.1591797 -1.375
-1.2275391 -0.30004883 -1.4365234 -1.0361328 -1.1308594 -0.8461914 0.04071045 0.50341797
-0.059570312 -0.18334961 1.9814453 0.27392578 -0.35498047 -0.1071167 0.16760254 -0.5888672
-0.9345703 -1.1845703 -0.58935547 0.890625 -1.3916016 -0.79248047 -1.3388672 -1.9951172
-0.09008789 -0.15551758 -0.11834717 -0.43359375 -0.41992188 -0.43701172 -0.72509766 -0.9370117
-0.71728516 -0.1640625 -0.31567383 -0.46875 -0.076538086 3.3984375 -0.33642578 -0.0725708
-0.09509277 -0.23852539 0.57177734 0.5629883 -0.81884766 1.4609375 0.7734375 -0.8388672
1.1748047 -0.31176758 -0.38354492 -0.2878418 -0.25512695 -0.18444824 -0.30859375 2.9160156
-0.24926758 -0.6015625 -0.3022461 -0.22875977 1.5371094 0.52978516 1.0341797 0.28955078
-1.7529297 0.06298828 0.97265625 -0.016860962 0.66503906 -0.0013055801 0.24609375 -0.10296631
-0.022018433 1.3828125 -0.6777344 -0.022399902 -0.74853516 -0.47216797 -2.125 -2.9179688
-1.3115234 -3.8671875 -0.74560547 -1.4414062 -2.34375 -1.9599609 -0.7553711 -0.34423828
0.8203125 0.16601562 -0.7631836 -2.4394531 0.5361328 -0.30297852 -0.57128906 0.08502197
0.40356445 1.6806641 0.72802734 1.1171875 -0.026748657 1.4833984 0.68847656 0.9868164
0.6269531 -0.22521973 0.2512207 0.25805664 -0.0501709 1.2246094 0.5786133 0.107299805
0.16503906 0.14526367 0.9995117 1.5751953 0.8544922 1.4785156 1.1552734 0.72265625
0.875 0.63671875 0.31396484 -0.34399414 -0.18762207 0.16345215 -0.5058594 -0.67089844
0.4038086 -0.4333496 -0.5288086 0.28564453 0.3317871 0.16833496 0.11706543 -0.03805542
-1.4814453 0.22265625 -0.24621582 0.080078125 0.36010742 0.08660889 0.072143555 -0.17553711
0.07501221 3.0253906 -0.16369629 0.016723633 0.027145386 0.123413086 -0.69091797 1.0791016
1.0126953 -0.06640625 2.0371094 1.9111328 -0.32641602 0.4580078 0.90283203 -0.17883301
-0.16760254 -0.14099121 -0.20874023 2.34375 -0.10961914 -0.2878418 -0.15039062 -0.16833496
-0.5336914 -1.9208984 -3.1367188 -0.28076172 -1.2509766 -2.0761719 -0.5839844 -1.0585938
-1.4238281 -0.86279297 -0.77246094 -0.57714844 -0.55322266 -0.5786133 -0.54052734 -0.47973633
-0.8232422 -0.6020508 -0.12512207 -1.2392578 -0.66064453 -0.9350586 -1.7382812 -0.5546875
-0.8154297 -1.3710938 -0.6357422 0.008323669 -0.90527344 -1.3378906 0.009597778 -0.77490234
-1.5976562 0.0025253296 -0.3154297 -0.38842773 1.0683594 1.3056641 1.1660156 1.1396484

const_fold_opt__480 f4 [48, 1, 3, 3]
00000000: 00e0 7a3f 0040 423f 0000 1bbf 0080 20be
00000010: 0060 97bf 0080 f9be 0040 95bf 00e0 a4bf
00000020: 0000 9abe 0080 383f 0040 863f 0000 343f
00000030: 00e0 f73e 00a0 763f 0060 b23d 0080 17bd
00000040: 0000 74be 0080 43bc 0000 333e 00e0 813f
00000050: 0060 6b3e 00a0 7e3f 0060 fb3f 00e0 973d
00000060: 0040 c83e 00e0 b53e 0080 22be 0060 13bd
00000070: 00a0 8ebf 0040 163f 0060 bebd 0020 833f
00000080: 0080 7e3f 00e0 3f3e 0000 833f 00c0 10be
00000090: 00a0 40bf 0000 15c0 0020 88bf 0080 00be
000000a0: 0000 7a3e 0000 0d3e 00e0 593f 0020 9e3e
000000b0: 0020 f73c 00e0 a1be 0020 273e 0000 643e
000000c0: 0060 98be 00a0 14c0 0000 2bbe 0020 19bf
000000d0: 0020 a7be 0060 edbe 00c0 18bd 00c0 a93f
000000e0: 00a0 b23f 0060 e4be 00a0 5a3e 0080 4d3f
000000f0: 00e0 ab3d 0080 a3bd 0020 5ebd 00a0 143f
00000100: 0020 9dbe 0000 e3be 0020 033f 00a0 5fbf
00000110: 0000 c9bf 0040 a73e 0020 723d 00a0 efbe
00000120: 00e0 ddbe 00c0 96bf 0000 febe 0020 c0be
00000130: 0060 12c0 0020 c4bd 0020 e6be 0000 2cbe
00000140: 0020 95bd 0060 44bf 00a0 a83e 0080 debe
00000150: 0000 c9bf 00e0 8e3f 0040 d13f 00e0 45bf
00000160: 0000 5abf 0060 163e 0000 62bf 0040 6ebf
00000170: 0020 743d 00a0 80bf 00e0 80bf 0060 1fbf
00000180: 00c0 d0be 0020 3bbe 0040 50bf 0040 a13f
00000190: 0020 353f 0020 973d 0000 bc3e 00e0 423f
000001a0: 0080 9d3e 00c0 e03e 0060 e43e 00c0 8f3e
000001b0: 0040 203f 0000 4f3f 0020 2c3f 0000 8abc
000001c0: 0020 0ec0 00c0 683e 00e0 78bf 0060 cfbe
000001d0: 0020 803d 00c0 143f 0040 4a3f 0000 883f
000001e0: 0040 243f 00a0 9c3e 00e0 62be 0060 193e
000001f0: 00c0 d7bf 00e0 0ebf 0060 47bf 00c0 61bf
00000200: 0060 b9bf 0020 01be 00c0 c9be 0000 46bf
00000210: 0080 ffbd 0040 473e 00c0 b23e 0060 c13c
00000220: 0040 6a3f 00c0 ddbd 0020 1bbf 0040 b13f
00000230: 0000 7bbe 0000 80bf 0060 b3bf 0000 dcbe
00000240: 00a0 863f 0080 8b3f 00a0 793f 0020 753f
00000250: 0020 eb3e 0060 a73e 0020 e33e 0000 bd3d
00000260: 0060 9cbd 0060 af3f 0080 803f 00c0 683e
00000270: 0000 693f 00c0 6a3f 0060 b5be 0060 bbbf
00000280: 00c0 68bf 00a0 a93e 0080 63bc 00e0 84be
00000290: 0060 afbe 00c0 fabd 0020 6abe 00a0 44bf
000002a0: 0080 6e3f 00a0 1c40 0060 05bf 00c0 06bf
000002b0: 0040 a3bf 0060 18be 0060 9e3e 00e0 fbbf
000002c0: 0080 63be 0020 c73e 0020 f73e 0040 2e3f
000002d0: 0040 313f 0080 1cbd 0060 4fbf 0020 243d
000002e0: 00e0 efbf 0000 91bf 00a0 c73d 0040 9e3e
000002f0: 0040 0f3f 0080 f8be 0040 24bf 0040 1e3e
00000300: 00a0 42bf 00c0 eebf 00a0 90be 00a0 7fbe
00000310: 00a0 c2be 00c0 d3bd 00a0 b63f 00a0 ae3f
00000320: 00a0 353f 0060 793f 0060 96bc 00a0 173f
00000330: 00e0 f63e 0040 873e 0060 643e 00c0 453f
00000340: 0060 983f 0040 7bbe 0060 413e 0060 33bf
00000350: 0080 a1bf 0060 a43e 0000 093d 0060 1bbf
00000360: 00a0 08bf 0060 473e 0060 e9be 00a0 4b3f
00000370: 00a0 953f 0060 963e 00c0 423f 0020 ee3c
00000380: 00a0 bbbe 0000 a1be 00a0 4a3e 00a0 b63f
00000390: 0020 9dbe 00a0 023f 0060 c53f 00c0 033f
000003a0: 00c0 a8bc 0060 81bd 0040 08be 0020 7d3f
000003b0: 0020 c83f 0000 06bf 00a0 503f 0080 a13f
000003c0: 0080 15be 0060 c8be 0040 063f 0000 a0bf
000003d0: 0000 cbbf 00c0 6d3d 0020 9bbf 00c0 a4be
000003e0: 0000 473e 00a0 dabe 00a0 8a3d 00c0 d73e
000003f0: 00c0 bf3f 0020 cb3e 0020 52bf 0080 b33f
0.97998047 0.75878906 -0.60546875 -0.15673828 -1.1826172 -0.4873047 -1.1660156 -1.2880859
-0.30078125 0.7207031 1.0488281 0.703125 0.48413086 0.9633789 0.08709717 -0.036987305
-0.23828125 -0.011932373 0.17480469 1.0146484 0.2298584 0.9946289 1.9638672 0.074157715
0.39111328 0.3552246 -0.1586914 -0.035980225 -1.1142578 0.58691406 -0.09295654 1.0244141
0.9941406 0.18737793 1.0234375 -0.14135742 -0.7524414 -2.328125 -1.0634766 -0.12548828
0.24414062 0.13769531 0.8510742 0.3088379 0.030166626 -0.3161621 0.16320801 0.22265625
-0.29760742 -2.3222656 -0.16699219 -0.59814453 -0.32641602 -0.46362305 -0.03729248 1.3261719
1.3955078 -0.44604492 0.21350098 0.8027344 0.08392334 -0.079833984 -0.054229736 0.5805664
-0.30688477 -0.44335938 0.51220703 -0.87353516 -1.5703125 0.32666016 0.05911255 -0.46801758
-0.4333496 -1.1777344 -0.49609375 -0.37524414 -2.2871094 -0.09576416 -0.4494629 -0.16796875
-0.07281494 -0.76708984 0.3293457 -0.4345703 -1.5703125 1.1162109 1.6347656 -0.7729492
-0.8515625 0.14685059 -0.8828125 -0.93066406 0.05960083 -1.0048828 -1.0068359 -0.6225586
-0.40771484 -0.18273926 -0.81347656 1.2597656 0.70751953 0.073791504 0.3671875 0.76123047
0.3076172 0.43896484 0.44604492 0.28076172 0.62597656 0.80859375 0.6723633 -0.016845703
-2.2207031 0.22729492 -0.97216797 -0.4050293 0.062561035 0.5810547 0.79003906 1.0625
0.64160156 0.3059082 -0.22155762 0.14978027 -1.6855469 -0.55810547 -0.7788086 -0.88183594
-1.4482422 -0.12609863 -0.39404297 -0.7734375 -0.12475586 0.19458008 0.3491211 0.023605347
0.91503906 -0.10827637 -0.60595703 1.3847656 -0.24511719 -1.0 -1.4013672 -0.4296875
1.0517578 1.0898438 0.97509766 0.95751953 0.45922852 0.3269043 0.44360352 0.092285156
-0.07635498 1.3701172 1.0039062 0.22729492 0.91015625 0.9169922 -0.35424805 -1.4638672
-0.9091797 0.33129883 -0.013885498 -0.25952148 -0.3425293 -0.12243652 -0.2286377 -0.7680664
0.9316406 2.4472656 -0.5209961 -0.5263672 -1.2753906 -0.14880371 0.30932617 -1.9677734
-0.22216797 0.38891602 0.48266602 0.68066406 0.6923828 -0.038208008 -0.8100586 0.04006958
-1.8740234 -1.1328125 0.097473145 0.30908203 0.5595703 -0.48535156 -0.64160156 0.15454102
-0.7602539 -1.8652344 -0.2824707 -0.24963379 -0.38012695 -0.103393555 1.4267578 1.3642578
0.70947266 0.9741211 -0.018356323 0.59228516 0.48217773 0.26416016 0.22302246 0.77246094
1.1904297 -0.24536133 0.18884277 -0.7006836 -1.2617188 0.32104492 0.033447266 -0.6069336
-0.5336914 0.19470215 -0.45581055 0.79541016 1.1689453 0.29370117 0.7607422 0.029067993
-0.36645508 -0.31445312 0.19787598 1.4267578 -0.30688477 0.5102539 1.5419922 0.51464844
-0.020599365 -0.06317139 -0.13305664 0.98876953 1.5634766 -0.5234375 0.8149414 1.2617188
-0.1459961 -0.39135742 0.52441406 -1.25 -1.5859375 0.058044434 -1.2119141 -0.32177734
0.19433594 -0.42700195 0.06768799 0.42138672 1.4980469 0.39672852 -0.8208008 1.4023438

const_fold_opt__478 f4 [24, 1, 3, 3]
00000000: 00e0 55be 00c0 54bf 00e0 80bf 0080 68be
00000010: 00a0 f5be 0040 4bbf 0060 0c3f 0060 a43e
00000020: 0080 36bf 00c0 cf3e 0020 cebf 0040 6fbf
00000030: 00a0 263e 0040 d13f 0080 31bf 0000 e43d
00000040: 00c0 0e3f 00e0 523e 0080 743f 0000 b0bf
00000050: 00a0 2dbf 00e0 4c3f 0040 58bf 0080 04bf
00000060: 0020 47bd 00c0 793f 00a0 0a3f 0060 4e3d
00000070: 0040 80bd 0080 aabe 0040 18c0 0080 a8bf
00000080: 0060 d13e 0000 bfbf 0080 13bf 00e0 603c
00000090: 0000 313b 0000 843f 0000 06be 00e0 893e
000000a0: 00e0 c43e 0060 a93f 0000 953c 00a0 acbf
000000b0: 0020 60bf 0020 07be 0060 093b 00a0 113e
000000c0: 00a0 0b40 0040 0cc0 0080 853d 00c0 39be
000000d0: 0060 133e 0000 b9bd 00c0 f23f 0020 7e3e
000000e0: 0020 99be 00c0 553f 00c0 dcbf 0000 84bf
000000f0: 00a0 dabd 0040 a5be 0040 82be 0040 09bf
00000100: 0080 0f3c 0040 d9bd 0020 26c0 0080 b53f
00000110: 0040 683f 00e0 49bf 0020 12bf 0040 7abe
00000120: 0060 ad3d 0040 3740 0020 733f 0040 c3bd
00000130: 00a0 c93f 0020 3d3e 00a0 00be 00e0 0bbd
00000140: 0080 273c 00e0 bf3e 0040 253f 0020 2d3f
00000150: 0080 1dbf 0020 85c0 0020 40bf 00e0 fbbd
00000160: 0020 cebe 0080 42be 00e0 3fbe 0040 aabf
00000170: 00e0 0c3e 0040 67bf 0060 bdbf 0020 63bd
00000180: 0040 1e3a 00a0 2bbd 0080 18bd 00e0 0a3e
00000190: 00c0 fd3e 00e0 883c 0040 0c3f 0000 1ac0
000001a0: 00e0 e23e 0000 943c 0040 cb3e 0020 453e
000001b0: 0040 163f 0020 8fbf 00e0 3d3f 0060 5cbe
000001c0: 0080 25c0 0080 e33d 0000 ec3e 00c0 083f
000001d0: 0080 323f 00c0 263c 0020 913f 0020 36be
000001e0: 0020 81bd 00e0 fd3f 00a0 ac3e 0060 dfbd
000001f0: 0060 2fbe 00c0 f7bc 0040 3a3f 00a0 883f
00000200: 00a0 39bf 0060 443f 00c0 813e 0040 d4bf
00000210: 0080 5fbf 0000 73bf 0080 44be 0000 123f
00000220: 00a0 e5be 0080 73bf 0060 07bf 0020 dbbf
00000230: 0080 d73d 00e0 8a3f 0020 413f 0080 183f
00000240: 0060 173f 0060 f83f 00c0 0bbf 0020 263f
00000250: 00a0 b43f 00e0 0d3e 0000 49bf 00c0 bfbe
00000260: 00c0 21bf 0020 f7bd 0080 b4be 0040 70bf
00000270: 0020 2c3f 00a0 22c0 00a0 0940 0080 f1bd
00000280: 0080 64bf 0080 30bf 0000 e13e 0000 c5bd
00000290: 00e0 e43e 0060 763e 0080 c0bf 00c0 43bf
000002a0: 0060 1fbd 00c0 6ebf 0060 6cbf 0060 8bbe
000002b0: 00c0 9fbf 00a0 73bf 0020 ab3e 0060 a5be
000002c0: 0040 2abf 0000 563f 00e0 f53f 00c0 533f
000002d0: 0060 763e 0000 ec3f 00a0 933e 00e0 d6bd
000002e0: 0060 dabe 0080 ad3e 0060 803e 0060 943e
000002f0: 0060 313e 00c0 4ebe 00e0 bbbf 00a0 afbe
00000300: 0060 fabe 00e0 40c0 00e0 93be 0040 7a3e
00000310: 0040 823c 00c0 693d 0040 26be 0060 f53e
00000320: 0020 e3be 0020 0abf 0060 5040 0060 2d3e
00000330: 00c0 61be 00c0 8dbe 0080 32bf 00c0 973e
00000340: 0040 ac3f 0020 60bf 0060 d23e 0060 0ec0
00000350: 00a0 04bf 00c0 203e 00e0 3f3d 0060 e8bc
-0.2088623 -0.8310547 -1.0068359 -0.22705078 -0.47973633 -0.7939453 0.54833984 0.32104492
-0.7128906 0.40576172 -1.6103516 -0.9345703 0.16271973 1.6347656 -0.6933594 0.111328125
0.5576172 0.20593262 0.9550781 -1.375 -0.67822266 0.80029297 -0.84472656 -0.5175781
-0.048614502 0.97558594 0.5415039 0.05038452 -0.06262207 -0.3330078 -2.3789062 -1.3164062
0.40893555 -1.4921875 -0.5761719 0.013725281 0.0027008057 1.03125 -0.13085938 0.2692871
0.38452148 1.3232422 0.018188477 -1.3486328 -0.8754883 -0.13195801 0.0020961761 0.14221191
2.1816406 -2.1914062 0.06518555 -0.18139648 0.1439209 -0.09033203 1.8964844 0.24816895
-0.29907227 0.83496094 -1.7246094 -1.03125 -0.10675049 -0.3227539 -0.25439453 -0.5361328
0.008758545 -0.1060791 -2.5957031 1.4179688 0.90722656 -0.7885742 -0.5708008 -0.24438477
0.08465576 2.8632812 0.94970703 -0.095336914 1.5751953 0.18469238 -0.12561035 -0.03414917
0.010223389 0.37475586 0.6455078 0.67626953 -0.6152344 -4.1601562 -0.7504883 -0.12298584
-0.4025879 -0.1899414 -0.18737793 -1.3300781 0.13757324 -0.9033203 -1.4794922 -0.05545044
0.00060367584 -0.041900635 -0.037231445 0.13562012 0.49560547 0.016708374 0.54785156 -2.40625
0.44311523 0.018066406 0.39697266 0.19250488 0.58691406 -1.1181641 0.7416992 -0.21520996
-2.5859375 0.111083984 0.4609375 0.5341797 0.6972656 0.010177612 1.1337891 -0.17785645
-0.06304932 1.9833984 0.3371582 -0.109069824 -0.17126465 -0.03024292 0.72753906 1.0673828
-0.72509766 0.76708984 0.25341797 -1.6582031 -0.8730469 -0.94921875 -0.19189453 0.5703125
-0.44848633 -0.9511719 -0.5288086 -1.7119141 0.10522461 1.0849609 0.75439453 0.5957031
0.5913086 1.9404297 -0.54589844 0.6489258 1.4111328 0.1385498 -0.78515625 -0.37451172
-0.63183594 -0.120666504 -0.35253906 -0.93847656 0.6723633 -2.5410156 2.1503906 -0.11791992
-0.8925781 -0.6894531 0.43945312 -0.096191406 0.44702148 0.24060059 -1.5039062 -0.76464844
-0.038909912 -0.9326172 -0.92333984 -0.2722168 -1.2480469 -0.95166016 0.33422852 -0.32299805
-0.66503906 0.8359375 1.9208984 0.82714844 0.24060059 1.84375 0.28833008 -0.10491943
-0.42651367 0.3388672 0.25073242 0.28979492 0.17321777 -0.2019043 -1.4677734 -0.34301758
-0.48901367 -3.0136719 -0.28881836 0.24438477 0.015899658 0.05706787 -0.16235352 0.47924805
-0.44360352 -0.5395508 3.2558594 0.16931152 -0.22045898 -0.27685547 -0.6972656 0.29638672
1.3457031 -0.8754883 0.41088867 -2.2246094 -0.5180664 0.15698242 0.046844482 -0.028366089

const_fold_opt__474 f4 [24, 24, 1, 1]
00000000: 0080 dc3b 0000 b03a 00e0 cbbe 0060 513d
00000010: 00c0 ac3d 00e0 f73c 00e0 e53d 0040 003e
00000020: 00a0 773b 0000 b9bd 0040 7abc 0020 d2bc
00000030: 00a0 2e3f 00e0 39bb 00a0 df3c 0000 483d
00000040: 0020 51bd 00c0 043e 00c0 48bd 00c0 87bd
00000050: 00a0 6cbc 0020 a03b 00c0 6b3e 00c0 3fbc
00000060: 0000 463e 0020 9c3d 0060 573d 0000 07bd
00000070: 00c0 393d 0080 953e 00c0 473e 00c0 e93d
00000080: 00c0 1fbe 0080 87bd 0000 953d 0000 82be
00000090: 00a0 f13d 0060 22be 0000 233e 0000 90bd
000000a0: 0040 ddba 00e0 413f 0080 3ebe 00a0 3bbe
000000b0: 0000 0fbd 0000 b53d 00a0 c13d 0080 6abd
000000c0: 0080 e63e 00a0 863e 0060 05bf 00a0 633d
000000d0: 0000 bebd 0020 3fbd 00e0 0c3f 00c0 bbbc
000000e0: 0080 1ebd 00a0 8cbb 00e0 dc3d 0080 33bc
000000f0: 0040 803e 0020 10be 00e0 b23e 0040 a0bd
00000100: 0080 1abf 00e0 49bd 0040 25bf 00e0 013e
00000110: 00a0 edbd 0020 163d 0080 023f 0040 3d3c
00000120: 00c0 0f3e 00e0 063e 0060 d73c 0080 a93e
00000130: 0020 c5bd 0000 53bc 00e0 ad3c 0040 f3bd
00000140: 00c0 0ebe 0080 013e 00c0 e13d 0020 d63d
00000150: 00c0 afbd 0060 20bd 0060 0ebe 0020 2fbe
00000160: 0080 c1bc 0040 3d3e 00e0 1fbd 0080 89bd
00000170: 00e0 bc3d 00a0 083e 0080 273c 0020 93bd
00000180: 00c0 39be 00c0 98bd 00a0 22bf 00c0 af3d
00000190: 0040 113d 00a0 aabd 0040 383e 0020 81bc
000001a0: 0080 343d 00a0 b43e 0060 7f3d 0020 cb3d
000001b0: 0060 273e 0060 06bf 00e0 733d 00a0 95be
000001c0: 00a0 fbbe 00c0 813e 0060 bf3e 0080 b93e
000001d0: 0040 983d 00c0 1ebc 00c0 0fbe 0000 023b
000001e0: 00a0 663d 0080 d43d 0020 e3bd 00a0 b4be
000001f0: 00a0 4dbe 00e0 a9bd 0080 583d 00a0 85bc
00000200: 0080 55be 0000 1d3c 00e0 263e 0040 5a3d
00000210: 00c0 4dbc 0080 6abd 0000 053d 00c0 a7bc
00000220: 0000 45bc 00e0 8cbd 00c0 bd3c 00c0 47bd
00000230: 0040 b53d 0060 7c3e 00a0 e8bc 0020 c03e
00000240: 00e0 4b3d 0020 3e3e 0000 1d3e 0080 ac3e
00000250: 0000 563e 00c0 b1bc 00a0 743e 0000 80be
00000260: 0060 27bd 0060 a3bd 00a0 7f3d 0060 243d
00000270: 00a0 4e3c 00e0 a93c 0080 843d 0080 ad3c
00000280: 0020 8f3c 0020 ab3d 0040 373d 0060 8b3a
00000290: 0040 61bc 00a0 893c 0080 cebd 0020 f1bd
000002a0: 0000 b53c 0060 bb3c 0000 6f3c 00c0 3cbc
000002b0: 0000 e8bd 00c0 913f 00c0 d5bd 00c0 ba3e
000002c0: 0040 8ebc 00c0 37bd 0060 043d 0000 03bc
000002d0: 00e0 203a 00e0 aabc 0020 d93d 00a0 28bd
000002e0: 0020 71b9 0080 e03c 0000 15bc 0060 263d
000002f0: 00e0 87bd 0040 0c3d 0060 19bc 00a0 dabd
00000300: 0020 2a3d 00a0 ac3e 00e0 243e 00a0 64bd
00000310: 00c0 62be 0080 e2bd 00c0 183b 00c0 a73d
00000320: 0060 01bf 00c0 a53d 00e0 9abe 00c0 8bbd
00000330: 00a0 503e 0020 55bf 00c0 9bbe 0000 c5be
00000340: 0000 18bf 0080 94be 0060 8a3d 00e0 f9bd
00000350: 00a0 a53e 0040 7f3e 0020 c2be 00c0 9bbd
00000360: 0080 a6bc 0060 f1bc 00c0 fd3d 0060 20bc
00000370: 0080 083e 0020 9abb 0000 86be 00e0 883b
00000380: 00e0 97bc 0000 debf 00c0 19bd 0040 6f3d
00000390: 0060 afbd 00c0 153b 00a0 14bd 0080 db3d
000003a0: 00c0 dabd 00e0 023d 0040 7cbc 00e0 a63d
000003b0: 00a0 023d 0080 143d 00c0 9f3f 0080 e53c
000003c0: 0060 31bd 0060 0e3d 0080 e53d 0000 353e
000003d0: 0080 a73e 00e0 863e 0000 273f 0060 f13d
000003e0: 00c0 e33d 0000 c0bc 00c0 3f3e 0000 093e
000003f0: 0060 023d 0060 00bd 0020 003f 0000 a93e
0.006729126 0.0013427734 -0.39819336 0.051116943 0.084350586 0.030258179 0.11224365 0.12524414
0.0037784576 -0.09033203 -0.015274048 -0.025650024 0.6821289 -0.0028362274 0.027297974 0.048828125
-0.05105591 0.12963867 -0.04901123 -0.06628418 -0.014442444 0.004886627 0.23022461 -0.011703491
0.19335938 0.07623291 0.052581787 -0.032958984 0.04534912 0.2919922 0.19506836 0.11413574
-0.15600586 -0.06616211 0.072753906 -0.25390625 0.11798096 -0.15856934 0.15917969 -0.0703125
-0.0016880035 0.7573242 -0.18603516 -0.18322754 -0.03491211 0.088378906 0.09454346 -0.057250977
0.4501953 0.26293945 -0.5209961 0.05557251 -0.09277344 -0.046661377 0.55029297 -0.022918701
-0.03869629 -0.0042915344 0.10784912 -0.010955811 0.25048828 -0.14074707 0.34936523 -0.07824707
-0.6035156 -0.04928589 -0.6455078 0.12683105 -0.11602783 0.03665161 0.5097656 0.011550903
0.14038086 0.13171387 0.026290894 0.3310547 -0.09625244 -0.012878418 0.021224976 -0.118774414
-0.1394043 0.12646484 0.11022949 0.10455322 -0.08581543 -0.039154053 -0.13903809 -0.17102051
-0.023620605 0.18481445 -0.039031982 -0.06713867 0.09222412 0.13342285 0.010223389 -0.07183838
-0.18139648 -0.07458496 -0.6352539 0.08581543 0.035461426 -0.08331299 0.17993164 -0.01576233
0.044067383 0.3527832 0.062347412 0.09918213 0.16345215 -0.52490234 0.059539795 -0.29223633
-0.49145508 0.25341797 0.3737793 0.3623047 0.07434082 -0.009689331 -0.14038086 0.0019836426
0.05630493 0.103759766 -0.11090088 -0.3527832 -0.20080566 -0.08294678 0.052856445 -0.016311646
-0.2084961 0.0095825195 0.16296387 0.05328369 -0.012557983 -0.057250977 0.032470703 -0.020477295
-0.012023926 -0.06878662 0.023162842 -0.04876709 0.08850098 0.24645996 -0.028396606 0.37524414
0.04977417 0.18566895 0.15332031 0.33691406 0.20898438 -0.021697998 0.2388916 -0.25
-0.040863037 -0.07977295 0.062408447 0.040130615 0.012611389 0.020736694 0.064697266 0.0211792
0.017471313 0.08355713 0.04473877 0.0010633469 -0.013748169 0.016799927 -0.10083008 -0.11773682
0.022094727 0.022872925 0.014587402 -0.011520386 -0.11328125 1.1386719 -0.10437012 0.3647461
-0.017364502 -0.04486084 0.032318115 -0.0079956055 0.0006136894 -0.020858765 0.10601807 -0.041168213
-0.00022995472 0.027404785 -0.009094238 0.040618896 -0.066345215 0.034240723 -0.009361267 -0.10675049
0.041534424 0.3371582 0.16101074 -0.05581665 -0.22143555 -0.1105957 0.00233078 0.08190918
-0.5053711 0.08093262 -0.30249023 -0.068237305 0.20373535 -0.83251953 -0.30419922 -0.38476562
-0.59375 -0.29003906 0.06756592 -0.12200928 0.32348633 0.24926758 -0.3791504 -0.076049805
-0.020324707 -0.029464722 0.12390137 -0.009788513 0.13330078 -0.0047035217 -0.26171875 0.0041770935
-0.018539429 -1.734375 -0.03753662 0.058410645 -0.085632324 0.0022850037 -0.0362854 0.107177734
-0.10681152 0.031951904 -0.015396118 0.08148193 0.03189087 0.036254883 1.2480469 0.028015137
-0.043304443 0.03475952 0.11206055 0.17675781 0.32714844 0.26342773 0.65234375 0.11785889
0.111206055 -0.0234375 0.18725586 0.13378906 0.031829834 -0.031341553 0.5004883 0.33007812

const_fold_opt__472 f4 [32, 1, 3, 3]
00000000: 00a0 07bf 0020 37bf 0000 1e3f 00a0 75bf
00000010: 0020 913f 0040 c43f 0080 b6bd 0060 4e3f
00000020: 0080 1c3f 00c0 3fbf 0020 3cbf 0020 01bf
00000030: 00e0 74bd 0080 aebf 00e0 4ebf 0040 b8be
00000040: 0000 d43e 00c0 24be 0060 ecbe 00c0 b3bf
00000050: 00a0 68be 00e0 463e 0040 a9bd 0020 a33e
00000060: 00c0 6f3f 0020 b33f 0000 353f 00e0 723f
00000070: 0020 993f 0000 9bbe 00a0 a23f 00e0 ed3e
00000080: 0020 17bf 0080 fcbd 00e0 01bf 00c0 1ebf
00000090: 0040 3cbf 0040 75bf 00c0 5bbf 0000 943e
000000a0: 00c0 de3f 00a0 bcbe 0020 133f 0020 b53f
000000b0: 0040 943f 0000 c53e 0040 63bf 00c0 de3e
000000c0: 00e0 17bf 00e0 0cc0 00c0 333e 00a0 e33e
000000d0: 0000 60bd 00a0 0cbe 0040 233f 0060 5f3e
000000e0: 0020 2ebf 0000 febf 0020 013e 0060 9f3f
000000f0: 00e0 bfbe 0080 d63e 0060 563f 00c0 9fbe
00000100: 0060 6dbe 00e0 903e 0020 54bf 00e0 fcbe
00000110: 0080 443e 0060 43bf 0020 babf 00a0 6abf
00000120: 0060 593f 0000 ac3f 0040 d93d 0040 de3e
00000130: 0020 e23e 00a0 e4be 0000 11bf 00a0 b3be
00000140: 00e0 44bd 0020 c6bd 00a0 c5be 0040 b7be
00000150: 00e0 38bf 0040 1bc0 0020 40bf 00a0 52bd
00000160: 0000 76be 0040 f8be 00a0 263e 00e0 fc3e
00000170: 0060 043d 0020 c33e 00e0 2940 00e0 41bd
00000180: 0040 8a3d 00a0 82bd 0020 103e 00c0 323e
00000190: 00c0 513f 0060 9e3d 00e0 ef3e 00c0 2640
000001a0: 00c0 b03c 00a0 19bd 00c0 dfbc 0000 74be
000001b0: 00c0 0cbe 00a0 513e 00e0 27bd 0020 60bd
000001c0: 00c0 f3bf 00c0 33bf 0060 96be 0040 35bf
000001d0: 0040 f6bd 0000 fbbe 0020 f33f 00a0 673f
000001e0: 00e0 7fbf 0060 32be 00a0 6f3f 0060 8f3c
000001f0: 0020 57bf 0000 1d3d 0040 82bf 0060 37bf
00000200: 0020 333f 00e0 36bf 0040 05bf 00e0 d1be
00000210: 0080 ae3e 0000 993f 00a0 9c3e 0000 113f
00000220: 0000 3340 0060 643e 0000 8a3f 00e0 74be
00000230: 0040 67be 0020 073f 00c0 3c3e 0000 b1bd
00000240: 00c0 17bf 0080 703e 00c0 b83f 0000 bcbf
00000250: 0020 38bf 00e0 8e3f 0060 05bf 00a0 e7be
00000260: 0080 9d3d 0080 76bf 00a0 90bf 0040 853e
00000270: 0020 5ebf 00e0 9ebf 0020 6a3d 0000 34be
00000280: 00a0 243b 0060 6d3d 0080 d9be 00a0 883f
00000290: 0040 5d3f 00e0 a8bf 0060 6bbe 0080 bb3f
000002a0: 00c0 81bf 0000 ebbe 0020 2b3f 0060 aa3e
000002b0: 0020 a2bf 0060 28bf 0020 423f 0040 0340
000002c0: 00a0 d9bf 0040 273e 0020 7d3f 0060 3b3e
000002d0: 00c0 31be 0020 273f 0020 273f 00e0 09bf
000002e0: 0000 ce3f 0020 963f 0020 81bf 0080 ac3e
000002f0: 0040 82bd 0020 bfbe 0060 6dbf 00e0 5a3e
00000300: 0080 75bc 0000 b13f 00a0 b83e 00c0 de3c
00000310: 0040 8c3e 0000 713e 00a0 413f 0000 353f
00000320: 00a0 0a3f 00c0 ac3d 0020 6440 0000 7a3e
00000330: 0000 40bc 0000 a4be 0060 56bc 0020 94be
00000340: 0080 f9be 0000 f73c 0020 d9bd 00c0 4440
00000350: 00e0 523d 00e0 a1bc 00a0 09be 00e0 843d
00000360: 0000 23bf 00e0 d4bf 00a0 b5bf 0060 37bf
00000370: 00e0 35be 0020 4cbf 0060 22bf 0040 f1bf
00000380: 00a0 74be 0060 6abf 0080 bfbf 0000 21bf
00000390: 00a0 88bf 00c0 0bc0 00c0 4fbf 00c0 783c
000003a0: 00e0 fbbe 00a0 303d 0040 8a3e 0040 7a3f
000003b0: 00a0 4f3f 0060 1440 00a0 1340 0080 6c3f
000003c0: 0020 723f 0040 e83e 0000 63bf 0080 1bbd
000003d0: 0060 cfbe 0060 e0be 0000 c8be 00c0 e6bf
000003e0: 0080 e9be 0020 07bf 0000 98bf 0020 a2be
000003f0: 00e0 2bbd 0020 0640 0000 acbe 0060 1f3f
-0.52978516 -0.71533203 0.6171875 -0.95947266 1.1337891 1.5332031 -0.08911133 0.80615234
0.6113281 -0.74902344 -0.7348633 -0.50439453 -0.059783936 -1.3632812 -0.80810547 -0.35986328
0.4140625 -0.16088867 -0.46166992 -1.4042969 -0.22717285 0.19421387 -0.0826416 0.31860352
0.93652344 1.3994141 0.70703125 0.94873047 1.1962891 -0.30273438 1.2705078 0.4645996
-0.59033203 -0.123291016 -0.5073242 -0.6201172 -0.73535156 -0.9580078 -0.85839844 0.2890625
1.7402344 -0.3684082 0.57470703 1.4150391 1.1582031 0.38476562 -0.8876953 0.4350586
-0.5932617 -2.2011719 0.17553711 0.44458008 -0.0546875 -0.1373291 0.6376953 0.21813965
-0.6801758 -1.984375 0.12609863 1.2451172 -0.37475586 0.4189453 0.83740234 -0.31201172
-0.23181152 0.28295898 -0.8286133 -0.49389648 0.19189453 -0.7631836 -1.4541016 -0.9165039
0.8491211 1.34375 0.1060791 0.43408203 0.4416504 -0.4465332 -0.56640625 -0.35083008
-0.048065186 -0.09674072 -0.38598633 -0.35791016 -0.72216797 -2.4257812 -0.7504883 -0.05142212
-0.24023438 -0.48486328 0.16271973 0.49389648 0.032318115 0.38110352 2.6542969 -0.047332764
0.06750488 -0.06378174 0.14074707 0.17456055 0.81933594 0.07733154 0.46850586 2.6054688
0.021575928 -0.037506104 -0.027313232 -0.23828125 -0.13745117 0.20471191 -0.040985107 -0.054718018
-1.9042969 -0.70214844 -0.29370117 -0.7080078 -0.12023926 -0.49023438 1.8994141 0.90478516
-0.9995117 -0.17419434 0.93603516 0.017501831 -0.84033203 0.038330078 -1.0175781 -0.7163086
0.69970703 -0.71435547 -0.5205078 -0.4099121 0.3408203 1.1953125 0.3059082 0.56640625
2.796875 0.22302246 1.078125 -0.23913574 -0.22583008 0.52783203 0.18432617 -0.08642578
-0.59277344 0.23486328 1.4433594 -1.46875 -0.7192383 1.1162109 -0.5209961 -0.45239258
0.0769043 -0.9628906 -1.1298828 0.2602539 -0.8676758 -1.2412109 0.057159424 -0.17578125
0.0025119781 0.05795288 -0.4248047 1.0673828 0.8642578 -1.3193359 -0.2298584 1.4648438
-1.0136719 -0.45898438 0.66845703 0.33276367 -1.2666016 -0.65771484 0.7583008 2.0507812
-1.7001953 0.16333008 0.98876953 0.1829834 -0.17358398 0.65283203 0.65283203 -0.5385742
1.609375 1.1728516 -1.0087891 0.33691406 -0.06359863 -0.37329102 -0.9272461 0.21374512
-0.014984131 1.3828125 0.3605957 0.027191162 0.27392578 0.23535156 0.75634766 0.70703125
0.5415039 0.084350586 3.5644531 0.24414062 -0.01171875 -0.3203125 -0.013084412 -0.28930664
-0.4873047 0.030151367 -0.10601807 3.0742188 0.051483154 -0.019760132 -0.13439941 0.06488037
-0.63671875 -1.6630859 -1.4189453 -0.7163086 -0.1776123 -0.7973633 -0.63427734 -1.8847656
-0.2388916 -0.91552734 -1.4960938 -0.62890625 -1.0673828 -2.1835938 -0.81152344 0.015182495
-0.49194336 0.043121338 0.27001953 0.97753906 0.81103516 2.3183594 2.3066406 0.9238281
0.9458008 0.45361328 -0.88671875 -0.037963867 -0.4050293 -0.43823242 -0.390625 -1.8027344
-0.4560547 -0.52783203 -1.1875 -0.3166504 -0.04196167 2.0957031 -0.3359375 0.6225586

const_fold_opt__471 f4 [42, 1, 3, 3]
00000000: 00a0 afbf 00c0 88bf 00c0 77be 0040 2fbf
00000010: 0080 27bf 00e0 98bd 0040 943d 0020 1a3e
00000020: 0040 433d 0080 5d3f 0040 8b3f 00c0 8f3f
00000030: 0080 833f 0080 ef3f 00e0 a73f 00e0 483f
00000040: 00a0 a73f 0000 3e3f 0060 ad3f 0060 c73f
00000050: 0020 283f 0000 6a3f 0000 a13f 0000 7f3f
00000060: 00c0 85bc 0020 c03e 0040 ff3e 00e0 d43e
00000070: 0080 4d3e 0020 44bd 0020 623f 00e0 813f
00000080: 00c0 9b3e 0020 2b3f 0020 223f 0080 793e
00000090: 0040 c2bf 0020 f1bf 0080 61bf 0000 d9bf
000000a0: 0040 e2bf 0000 2abf 0040 1abf 0080 e7be
000000b0: 00e0 5fbe 0060 b93d 0060 f03e 00a0 113f
000000c0: 0000 0e3f 00e0 813f 00e0 6c3f 0040 433f
000000d0: 00c0 aa3f 00a0 653f 0020 b6be 00c0 2fbf
000000e0: 00a0 37bc 00c0 a1be 0040 2b3f 00e0 8b3f
000000f0: 0020 2e3f 00a0 bd3f 0060 753f 0020 aa3e
00000100: 0060 c73f 0040 d93f 00a0 983f 00a0 3140
00000110: 00e0 2240 00c0 813f 0080 f33f 00e0 b33f
00000120: 00e0 f4bc 0060 bd3e 0040 fe3e 0080 d63e
00000130: 0080 9a3f 0060 6b3f 00c0 413f 00c0 8d3f
00000140: 0000 393f 0020 a63f 0020 a83f 0040 353f
00000150: 00e0 d13f 0080 0a40 0040 253f 00e0 e63e
00000160: 0080 a63f 00c0 ee3e 0040 08bf 0080 0ebf
00000170: 00e0 03bf 0040 90bf 00a0 b7bf 0020 17bf
00000180: 0000 9cbf 0040 7cbf 0020 3dbe 0020 933e
00000190: 0060 8a3f 00a0 083f 00e0 533f 0080 b23f
000001a0: 0080 613f 00e0 553f 00a0 753f 00c0 b03e
000001b0: 0000 89bd 0060 203f 0000 5e3f 0060 873f
000001c0: 00e0 0040 00a0 d93f 0040 923f 0000 cd3f
000001d0: 0020 633f 0060 99bf 00c0 98bf 0060 2ebe
000001e0: 00a0 a7bf 0040 a0bf 0000 a0be 00c0 09bf
000001f0: 00a0 10bf 00a0 a9bd 00e0 6e3f 0000 e13f
00000200: 00a0 853f 0080 913f 0040 f83f 00c0 ad3f
00000210: 0000 293f 00e0 a13f 0020 783f 0060 843f
00000220: 0040 7a3f 0060 b33e 00c0 a23f 0080 e03f
00000230: 0040 c63e 00a0 223f 0020 bf3f 0060 243f
00000240: 00c0 1e3f 0000 f33f 0060 823f 0000 a13f
00000250: 0060 df3f 00c0 8f3f 0000 173f 0000 5f3f
00000260: 0000 123f 0060 e9bf 0020 e4bf 00e0 20bf
00000270: 00a0 e2bf 00c0 05c0 00c0 aabe 00a0 fbbe
00000280: 0040 86bf 0060 533f 0040 3a3f 0000 703f
00000290: 00c0 5f3f 0000 d03e 00c0 dcbe 0080 6fbf
000002a0: 0060 96be 00a0 8fbf 0040 bbbf 00a0 14be
000002b0: 0040 12bf 0040 4bbf 00a0 62bf 0020 d3bf
000002c0: 0040 90bf 0020 82bf 00e0 a0bf 00a0 13bf
000002d0: 0060 a53f 0060 0240 00a0 8a3f 0060 d23e
000002e0: 0080 6a3f 0080 993f 0060 ce3d 0020 ab3e
000002f0: 0020 f23e 00c0 673f 00c0 a13f 00e0 333f
00000300: 0020 953f 0060 da3f 0040 6d3f 0080 033f
00000310: 00e0 653f 0060 203f 0060 ea3e 0000 373f
00000320: 0080 513f 0040 803e 0000 943f 0040 a63f
00000330: 00c0 743f 00e0 873f 0000 043f 0020 d63d
00000340: 00c0 953f 00c0 9d3f 0080 8a3e 00a0 3d3f
00000350: 0040 303f 00e0 753c 0060 7f3d 0080 fe3d
00000360: 0080 623f 00c0 ac3f 0040 323f 0000 cb3f
00000370: 00c0 1d40 0060 b83f 00e0 8b3f 00c0 cf3f
00000380: 00c0 893f 0000 803f 0000 8c3f 00a0 dd3e
00000390: 0040 f23f 0060 1740 0060 ca3f 0000 8b3f
000003a0: 0040 e93f 00a0 cf3f 00c0 8e3f 0060 2b3f
000003b0: 0080 663d 00e0 213f 0080 aa3f 0000 783f
000003c0: 00e0 2d3e 00c0 5c3f 0020 303f 0060 d23d
000003d0: 00a0 d2bd 00c0 0cbe 00a0 e33e 0060 9f3f
000003e0: 00c0 7e3f 0020 5d3f 00c0 d53f 0000 ac3f
000003f0: 0040 fcbf 0040 b1be 0020 5a3f 0000 85bf
-1.3720703 -1.0683594 -0.24194336 -0.6845703 -0.6542969 -0.074645996 0.072387695 0.1505127
0.047668457 0.8652344 1.0878906 1.1230469 1.0273438 1.8710938 1.3115234 0.78466797
1.3095703 0.7421875 1.3544922 1.5576172 0.6567383 0.9140625 1.2578125 0.99609375
-0.016326904 0.37524414 0.49853516 0.41577148 0.2006836 -0.04788208 0.8833008 1.0146484
0.30419922 0.66845703 0.6333008 0.24365234 -1.5175781 -1.8837891 -0.8808594 -1.6953125
-1.7675781 -0.6640625 -0.60253906 -0.45214844 -0.21862793 0.09051514 0.46948242 0.56884766
0.5546875 1.0146484 0.92529297 0.7626953 1.3339844 0.89697266 -0.3557129 -0.68652344
-0.011207581 -0.31591797 0.6689453 1.0927734 0.6801758 1.4814453 0.9584961 0.3322754
1.5576172 1.6972656 1.1923828 2.7753906 2.5449219 1.0136719 1.9023438 1.4052734
-0.029891968 0.36987305 0.49658203 0.4189453 1.2070312 0.9194336 0.75683594 1.1074219
0.72265625 1.2978516 1.3134766 0.7080078 1.6396484 2.1640625 0.6455078 0.45092773
1.3007812 0.4663086 -0.53222656 -0.5566406 -0.5151367 -1.1269531 -1.4345703 -0.59033203
-1.21875 -0.98535156 -0.18469238 0.28735352 1.0810547 0.5336914 0.8276367 1.3945312
0.8808594 0.8354492 0.95947266 0.34521484 -0.06689453 0.62646484 0.8671875 1.0576172
2.0136719 1.7001953 1.1425781 1.6015625 0.88720703 -1.1982422 -1.1933594 -0.17028809
-1.3095703 -1.2519531 -0.3125 -0.53808594 -0.5649414 -0.08282471 0.93310547 1.7578125
1.0439453 1.1367188 1.9394531 1.3574219 0.66015625 1.2646484 0.9692383 1.0341797
0.97753906 0.3503418 1.2714844 1.7539062 0.38720703 0.6352539 1.4931641 0.64208984
0.6201172 1.8984375 1.0185547 1.2578125 1.7451172 1.1230469 0.58984375 0.87109375
0.5703125 -1.8232422 -1.7822266 -0.62841797 -1.7705078 -2.0898438 -0.3334961 -0.49145508
-1.0488281 0.8256836 0.72753906 0.9375 0.87402344 0.40625 -0.43115234 -0.9355469
-0.29370117 -1.1220703 -1.4628906 -0.1451416 -0.57128906 -0.7939453 -0.8852539 -1.6494141
-1.1269531 -1.0166016 -1.2568359 -0.57666016 1.2919922 2.0371094 1.0830078 0.41088867
0.9160156 1.1992188 0.10076904 0.33422852 0.4729004 0.90527344 1.2636719 0.7026367
1.1650391 1.7060547 0.9267578 0.5136719 0.8979492 0.62646484 0.45776367 0.71484375
0.8183594 0.25048828 1.15625 1.2988281 0.9560547 1.0615234 0.515625 0.10455322
1.1699219 1.2324219 0.2705078 0.74072266 0.68847656 0.015007019 0.062347412 0.12426758
0.8847656 1.3496094 0.69628906 1.5859375 2.4648438 1.4404297 1.0927734 1.6230469
1.0761719 1.0 1.09375 0.43286133 1.8925781 2.3652344 1.5810547 1.0859375
1.8222656 1.6220703 1.1152344 0.6694336 0.056274414 0.6323242 1.3320312 0.96875
0.1697998 0.8623047 0.6879883 0.10272217 -0.10284424 -0.13745117 0.44458008 1.2451172
0.9951172 0.86376953 1.6699219 1.34375 -1.9707031 -0.3461914 0.8520508 -1.0390625
